rso_chatbot_model.pth (torch, 239757 bytes, 6 tensors)

fc1.weight f4 [128, 356]
0.25685066 0.010204588 -0.2407651 0.2845897 -0.06935692 0.0028543565 -0.042916156 0.15623914
0.086802065 0.007885684 0.06362129 0.07156028 0.20657668 0.057182025 0.07700826 -0.2663196
-0.28143245 -0.076632865 -0.028651739 0.024439465 0.00066333544 0.06900019 0.06382622 0.0061621666
0.14673771 -0.07642874 0.06308641 0.14720999 -0.11849322 -0.057382517 0.1005642 -0.2287449
0.10115942 -0.08968658 -0.05136883 -0.02752834 0.1115954 -0.13950911 -0.22459349 0.012244158
-0.1177568 0.27907664 0.12716076 0.06477645 -0.0074984925 -0.0052384487 -0.23291847 -0.1071741
0.06026592 0.24799879 -0.03135934 -0.23508373 0.3274814 0.3094406 -0.1264428 0.34429583
0.24365197 0.095977105 -0.041133277 -0.060926616 0.2632704 -0.08244628 -0.038447626 0.21546729
0.35805115 -0.013486855 0.016992407 0.16385634 0.047322225 -0.04109591 0.16133793 0.09803005
-0.18200935 -0.1150164 -0.059652623 -0.053037737 -0.026434744 0.375018 -0.16926298 -0.029771818
-0.010879338 0.21816759 0.0031030874 -0.04724727 0.7666602 0.13380077 -0.096630566 -0.03228321
-0.2611695 0.402202 0.18152764 -0.24790315 -0.115983196 0.2843732 0.18252711 0.1946378
-0.22943379 -0.14289282 -0.019354533 -0.24707407 0.17627755 0.0035386328 -0.07477313 0.17027012
-0.21487786 -0.053796068 -0.057788976 0.316797 0.4079376 -0.1767167 0.2504406 -0.060931403
-0.09164897 -0.20467734 -0.17546001 -0.04601609 -0.097778305 0.17750905 0.36878908 -0.0016097862
0.19418861 -0.24689244 -0.16444537 -0.31742612 -0.3780225 -0.09203214 -0.10785233 -0.16661592
0.17003515 -0.2640089 -0.09935267 -0.036300156 -0.06479692 -0.04827811 0.003019812 -0.032313515
0.10405814 0.13753846 -0.21266559 -0.038866516 -0.15526083 -0.14438668 -0.11280997 0.06924904
-0.08932975 -0.05330428 0.0036705928 -0.012575814 0.20867497 -0.2666378 0.17273991 -0.067221165
0.13616164 -0.05209482 -0.12669653 0.028724298 -0.18827465 0.051688667 0.18707563 0.035031993
-0.014880941 -0.11548766 -0.16354108 0.19935893 -0.008359776 0.037924774 0.19234194 -0.095929585
0.27059516 -0.14264426 0.0058213663 0.3726035 0.16703863 0.008202536 -0.08844298 -0.080474906
-0.039944258 -0.019663595 0.19946952 0.031250577 0.13183069 0.05330823 -0.21850826 -0.11205374
0.20018776 0.25113577 0.03434212 0.24647132 0.25089598 0.18052045 -0.05972879 0.17167927
-0.3348668 -0.05161794 0.05623993 0.17529608 -0.0725822 0.2828854 -0.17382257 0.13712516
-0.19290137 0.112752356 -0.2106998 -0.040475186 -0.036200035 -0.020332292 0.20354295 6.501982e-05
0.23987888 -0.32310215 0.119538955 -0.10633328 0.06126165 -0.040393855 0.03041931 0.034570917
0.017804615 -0.015556188 0.27778465 -0.010149348 -0.07748344 0.18452558 -0.016205579 -0.12042369
-0.048718337 -0.02568479 -0.13227998 -0.026384523 -0.12467435 -0.16899021 0.07829129 0.18878348
0.0645791 -0.074153304 -0.11818106 -0.20465478 -0.23963587 -0.11968403 -0.15303443 -0.049335964
0.2827975 0.19387157 -0.09137616 0.16299272 -0.08108646 0.5260507 -0.033221994 -0.08436351
-0.038220715 -0.11157796 -0.20060451 0.21667188 -0.03170063 -0.012967435 -0.07304325 0.13539001
00000000: ee81 833e 2531 273c 208b 76be beb5 913e
00000010: 000b 8ebd 2810 3b3b dac8 2fbd 27fd 1f3e
00000020: 48c5 b13d f532 013c e14b 823d 328e 923d
00000030: d688 533e b337 6a3d 82b6 9d3d 0b5b 88be
00000040: ea17 90be b1f1 9cbd 0db7 eabc 4635 c83c
00000050: b0e3 2d3a f94f 8d3d 52b7 823d 00ec c93b
00000060: 6942 163e ac86 9cbd 7333 813d 37be 163e
00000070: 93ac f2bd ee09 6bbd 9af4 cd3d 1a3c 6abe
00000080: ac2c cf3d 99ad b7bd 1f68 52bd 1d83 e1bc
00000090: 218c e43d 7adb 0ebe d6fb 65be b99b 483c
000000a0: 7a2a f1bd 22e3 8e3e 6e36 023e 84a9 843d
000000b0: eab5 f5bb 4ba7 abbb 2e82 6ebe 187e dbbd
000000c0: 66d9 763d 65f3 7d3e a772 00bd cab9 70be
000000d0: a4ab a73e 006f 9e3e 397a 01be 8b47 b03e
000000e0: e77f 793e a58f c43d 5e7b 28bd 308e 79bd
000000f0: 61cb 863e 98d9 a8bd 427b 1dbd 75a3 5c3e
00000100: 7b52 b73e f8f7 5cbc a933 8b3c f5c9 273e
00000110: f3d4 413d 2f54 28bd c535 253e fbc3 c83d
00000120: a960 3abe b88d ebbd 4f56 74bd 193e 59bd
00000130: ad8d d8bc 5c02 c03e 4653 2dbe 07e4 f3bc
00000140: 403f 32bc 5367 5f3e 2b5d 4b3b 5a86 41bd
00000150: d843 443f 1203 093e 3fe6 c5bd 663b 04bd
00000160: 02b8 85be 6ced cd3e 62e2 393e 53da 7dbe
00000170: 9988 edbd 5d99 913e 63e8 3a3e 224f 473e
00000180: b1f0 6abe 7f52 12be 668d 9ebc fc00 7dbe
00000190: 1a82 343e 68e8 673b a822 99bd 4a5b 2e3e
000001a0: f108 5cbe 4459 5cbd 22b4 6cbd 3733 a23e
000001b0: 32dd d03e 39f5 34be c039 803e 3593 79bd
000001c0: 75b2 bbbd f096 51be caab 33be 5e7b 3cbd
000001d0: fe3f c8bd efc4 353e ecd1 bc3e 76ff d2ba
000001e0: 61d9 463e 5fd1 7cbe 5e64 28be ad85 a2be
000001f0: 2a8c c1be 597b bcbd afe1 dcbd 5d9d 2abe
00000200: b21d 2e3e 2d2c 87be 6a79 cbbd 79af 14bd
00000210: 3fb4 84bd 44bf 45bd 0ae8 453b 2d5b 04bd
00000220: 6f1c d53d e2d6 0c3e 02c5 59be 7f32 1fbd
00000230: b2fc 1ebe 1ada 13be ea08 e7bd 71d2 8d3d
00000240: 84f2 b6bd 9755 5abd 548e 703b c90a 4ebc
00000250: e4ae 553e c084 88be bbe2 303e 40ab 89bd
00000260: f56d 0b3e 6161 55bd bcbc 01be 384f eb3c
00000270: 12cb 40be 7fb7 533d c190 3f3e b57d 0f3d
00000280: 31cf 73bc cb84 ecbd 5077 27be bf24 4c3e
00000290: 71f7 08bc 0257 1b3d 49f5 443e bb76 c4bd
000002a0: 738b 8a3e 5611 12be 29c1 be3b e3c5 be3e
000002b0: 2d0c 2b3e ee63 063c 9821 b5bd 07d0 a4bd
000002c0: 979c 23bd 8c15 a1bc bd41 4c3e 9b00 003d
000002d0: a0fe 063e bb59 5a3d a1c0 5fbe 6e7c e5bd
000002e0: 05fe 4c3e de94 803e 53aa 0c3d fa62 7c3e
000002f0: 7075 803e 5ada 383e 2da6 74bd b1cc 2f3e
00000300: a973 abbe 556d 53bd d75b 663d d180 333e
00000310: faa5 94bd 5bd6 903e 8bfe 31be 8a6a 0c3e
00000320: f087 45be b5ea e63d b0c1 57be 4fc9 25bd
00000330: 7d46 14bd e88f a6bc 906d 503e 405b 8838
00000340: cfa2 753e a56d a5be d7d0 f43d 43c5 d9bd
00000350: 7fed 7a3d 0774 25bd eb31 f93c 3c9a 0d3d
00000360: fcda 913c 62df 7ebc ca39 8e3e 7349 26bc
00000370: a3af 9ebd 46f4 3c3e 90c1 84bc b2a0 f6bd
00000380: e18c 47bd e968 d2bc 6774 07be 5b24 d8bc
00000390: 4455 ffbd c50b 2dbe 2f57 a03d 7550 413e
000003a0: 0c42 843d b0dd 97bd e908 f2bd 0691 51be
000003b0: 1b63 75be e71c f5bd 0fb5 1cbe 8214 4abd
000003c0: d5ca 903e 4586 463e 6d23 bbbd 90e7 263e
000003d0: a810 a6bd 42ab 063f c913 08bd c7c6 acbd
000003e0: 538d 1cbd fc82 e4bd 456b 4dbe 3cdf 5d3e
000003f0: 85d8 01bd 5d75 54bc b397 95bd aea3 0a3e

fc1.bias f4 [128]
0.07169355 0.18226473 0.1682858 0.12573652 0.09091571 0.06778077 0.14356428 0.111913405
0.07865623 0.033209816 0.12501709 0.19232763 0.114936866 0.018212566 0.087343745 0.08301676
-0.00063568825 0.23006885 0.17615648 0.1307857 0.106951505 0.14630508 0.18002479 0.1854243
0.11922239 0.119954504 0.16448961 0.13344271 0.09010699 0.15306635 0.22360516 0.09490181
0.104723066 0.14468454 0.0904068 0.17390832 0.1303416 0.06274644 0.08459344 0.09920928
0.08831211 0.101099715 0.1282135 0.11232877 0.19845858 0.09496389 0.07239799 0.23865828
0.13535744 0.16063313 0.20143324 0.11193809 0.14551286 0.07664129 0.07937758 0.004276082
0.12992126 0.102236025 0.1310148 0.047985975 0.06669927 0.11848507 0.16059293 0.16213691
0.051995303 0.099163294 0.20103167 0.1277149 0.16439182 0.119003735 0.14034262 0.17616503
0.14793207 0.14516382 0.12042835 0.015135353 0.07411 0.16526572 0.14171416 0.050536696
0.17633872 0.21416633 0.10277212 0.08147967 0.10821303 0.05348509 0.032078438 0.0639933
0.19491422 0.012783155 0.15317442 0.0658408 0.092511244 0.10556689 0.10373326 0.17812613
0.13930652 0.08116644 0.14939685 0.10144797 0.24242285 0.1869801 0.11594658 0.08278175
0.097100206 0.11433789 0.077516854 0.16794744 0.062491417 0.16870812 0.15910663 0.06623461
0.19970116 0.062122677 0.1675872 0.11716467 0.13024971 0.06374807 0.04973578 0.07609472
0.119109936 0.10325061 0.07803297 0.0605785 0.13437766 0.19341895 0.081275605 -0.023798568
00000000: 11d4 923d 9ba3 3a3e 1d53 2c3e 13c1 003e
00000010: 0432 ba3d a5d0 8a3d 8402 133e db32 e53d
00000020: 8416 a13d 0407 083d 7b04 003e 89f1 443e
00000030: 0564 eb3d 8532 953c 47e1 b23d b104 aa3d
00000040: 51a4 26ba 2b97 6b3e 5d62 343e b0ec 053e
00000050: 6409 db3d 00d1 153e 6b58 383e dedf 3d3e
00000060: de2a f43d b5aa f53d f76f 283e 35a5 083e
00000070: 038a b83d 6dbd 1c3e c0f8 643e e15b c23d
00000080: 0c79 d63d 2f28 143e 3327 b93d 0615 323e
00000090: 4578 053e 3581 803d 533f ad3d 3c2e cb3d
000000a0: fbdc b43d 5e0d cf3d 664a 033e a00c e63d
000000b0: ba38 4b3e 6e7c c23d 6645 943d d662 743e
000000c0: 249b 0a3e 037d 243e 8444 4e3e cc3f e53d
000000d0: 5301 153e 1cf6 9c3d b690 a23d 601e 8c3b
000000e0: 140a 053e 1f61 d13d be28 063e f18c 443d
000000f0: a099 883d 4da8 f23d 7972 243e 3807 263e
00000100: 07f9 543d 2016 cb3d 3fdb 4d3e b2c7 023e
00000110: 5456 283e 3bb8 f33d fab5 0f3e 9b64 343e
00000120: 817b 173e d3a5 143e 24a3 f63d 46fa 773c
00000130: fcc6 973d 6b3b 293e 841d 113e 91ff 4e3d
00000140: 2392 343e 6b4e 5b3e 307a d23d d0de a63d
00000150: cb9e dd3d 2f13 5b3d ae64 033d eb0e 833d
00000160: 9897 473e 7070 513c c1d9 1c3e 8bd7 863d
00000170: 8976 bd3d 7433 d83d 1a72 d43d b266 363e
00000180: 5ea6 0e3e 973a a63d 7dfb 183e f4c3 cf3d
00000190: b23d 783e b677 3f3e 6775 ed3d 7a89 a93d
000001a0: 79dc c63d fc29 ea3d 28c1 9e3d 6afa 2b3e
000001b0: 00f7 7f3d d2c1 2c3e d9ec 223e 03a6 873d
000001c0: 767e 4c3e 5974 7e3d fb9b 2b3e 08f4 ef3d
000001d0: 2e60 053e 598e 823d bfb7 4b3d 8cd7 9b3d
000001e0: e9ef f33d 0e75 d33d c0cf 9f3d 2921 783d
000001f0: 4c9a 093e 9e0f 463e d373 a63d 37f5 c2bc

fc2.weight f4 [64, 128]
-0.043926276 -0.037590723 0.14276677 -0.07730175 -0.5234939 0.48614368 0.17577614 0.0911379
-0.056415875 -0.113654755 0.36958414 -0.48194343 0.0052599134 -0.2240717 -0.24455416 -0.00027957116
0.01805016 0.37059608 -0.32026878 0.16301656 -0.10852663 0.062140107 -0.15066834 -0.2050619
0.41333258 -0.02221454 0.6410722 0.11185524 -0.39083064 0.14048962 0.12181026 -0.352898
-0.08421832 -0.2179854 0.6856653 0.13134877 0.6746291 0.34610495 0.2899046 -0.23907645
0.014450977 -0.1343901 -0.018148826 0.12239803 -0.1948929 0.25263485 -0.22442348 -0.040648416
-0.2515624 -0.01528691 0.259484 0.10601237 -0.45536727 -0.080252 -0.2867184 0.0057040756
-0.15486597 -0.080909766 0.21640213 0.282281 0.36093324 -0.4549244 -0.05195317 0.45892522
0.07281072 0.1676847 0.42772785 0.19868815 0.17009827 0.120301366 0.46663615 0.46812966
0.38198543 -0.0005310521 0.013492812 0.12434071 0.1512964 -0.046886593 -0.23330241 0.0050652237
1.0749344 -0.07091843 -0.4005251 -0.114659645 0.11087753 -0.21528584 0.020947075 -0.3170389
0.336422 -0.39355147 -0.11488345 -0.11759475 -0.29162338 -0.116394505 -0.11218687 0.24485214
-0.18672359 -0.10188007 0.5885199 -0.2897527 -0.2455606 0.28574318 0.14732216 -0.19758989
-0.040649522 -0.10135293 0.39100012 0.82581735 -0.15680099 0.195583 0.15710692 -0.050116494
0.20784348 -0.21812464 -0.522146 -0.12075697 0.27534324 -0.1369712 -0.099215016 0.23382686
0.100373276 -0.51450616 0.068570934 0.6470349 -0.2867943 -0.11222657 0.17745596 -0.19744301
0.09285236 0.02581884 -0.099694744 0.08534479 -0.07428567 0.15802298 0.58953327 0.46670887
-0.39989883 -0.0336518 0.40101913 -0.18605642 -0.14171235 -0.29546154 -0.30286264 0.6606963
0.22400449 -0.18009062 0.41286865 0.7276316 -0.05633718 -0.041538943 -0.026197307 0.060270596
0.33515945 -0.19471689 -0.34589523 0.50866145 -0.22525883 -0.10486908 0.30679238 -0.38266814
0.1867556 -0.21320388 0.24799614 -0.015925013 0.020147216 0.0014230207 -0.14002398 -0.024098502
-0.22708324 -0.46309793 0.046968617 0.10521127 0.22816631 0.06978266 0.07145846 -0.28475985
-0.17489374 -0.09541959 0.6214435 0.00028076442 -0.18932624 0.6055282 0.22124255 0.023332387
-0.32860827 -0.24782872 0.4924379 0.11115066 -0.1794169 0.00598109 0.04290442 -0.07611005
-0.0289587 0.12623857 0.06493103 -0.07466219 -0.100086875 -0.055493396 0.04598079 0.050353736
0.010339497 0.27533776 0.23464058 -0.2717888 -0.16991352 -0.093704365 -0.036893275 -0.0583907
0.26359898 -0.2899405 -0.18621163 -0.036048405 0.6850488 -0.30652547 0.10246672 -0.03802994
-0.16681309 0.019247103 0.19077042 0.14754196 -0.42978448 0.100018464 0.7686166 0.06764746
0.11095049 -0.16835621 0.10710119 -0.09333782 0.32636854 0.3656678 0.11020392 0.45764598
0.32183552 0.010586447 0.13660198 0.3265705 -0.0016520782 -0.385158 -0.13578759 -0.093479134
-0.06514662 0.06556593 0.37552395 -0.23526944 0.36503372 0.3272271 -0.040812295 0.22226338
-0.41203776 0.012309334 -0.07536121 0.1407914 -0.21301205 0.52042305 -0.006323604 -0.12742619
00000000: 0aec 33bd bbf8 19bd 7431 123e 6150 9ebd
00000010: b203 06bf d3e7 f83e a9fe 333e 82a6 ba3d
00000020: 5514 67bd d3c3 e8bd 223a bd3e 4ac1 f6be
00000030: 5a5b ac3b 0d73 65be 686c 7abe 6893 92b9
00000040: eedd 933c c5be bd3e 45fa a3be d0ed 263e
00000050: 3643 debd a086 7e3d cd48 1abe bffb 51be
00000060: 54a0 d33e 44fb b5bc 4f1d 243f 5c14 e53d
00000070: f41a c8be 83dc 0f3e a877 f93d 0caf b4be
00000080: a87a acbd 9137 5fbe c387 2f3f 4b80 063e
00000090: 7eb4 2c3f ab34 b13e 606e 943e 75d0 74be
000000a0: cac3 6c3c 8f9d 09be d9ac 94bc d1ab fa3d
000000b0: 0192 47be 5b59 813e 45cf 65be f47e 26bd
000000c0: c9cc 80be f375 7abc 16db 843e 031d d93d
000000d0: e625 e9be 295b a4bd c1cc 92be 41e9 ba3b
000000e0: 2f95 1ebe 05b4 a5bd 8598 5d3e 2387 903e
000000f0: 3ecc b83e daeb e8be d9cc 54bd 3ff8 ea3e
00000100: c91d 953d 8ab5 2b3e 25ff da3e e874 4b3e
00000110: 3e2e 2e3e 9060 f63d efea ee3e b1ae ef3e
00000120: 9893 c33e 4e36 0bba f510 5d3c 58a6 fe3d
00000130: 72ed 1a3e 280c 40bd d4e6 6ebe 2dfa a53b
00000140: 7397 893f af3d 91bd a011 cdbe add2 eabd
00000150: c213 e33d e473 5cbe 3399 ab3c ec52 a2be
00000160: 813f ac3e 947f c9be 0448 ebbd 84d5 f0bd
00000170: a94f 95be 3e60 eebd 3bc2 e5bd 85ba 7a3e
00000180: 7834 3fbe 80a6 d0bd 3da9 163f 775a 94be
00000190: 3d74 7bbe ee4c 923e 9fdb 163e 0155 4abe
000001a0: 1d80 26bd 2092 cfbd 2b31 c83e c468 533f
000001b0: 7090 20be e946 483e a3e0 203e f446 4dbd
000001c0: ecd4 543e 115c 5fbe 5cab 05bf 6e4f f7bd
000001d0: caf9 8c3e 2e42 0cbe 3e31 cbbd 4f70 6f3e
000001e0: 8190 cd3d adb6 03bf eb6e 8c3d 14a4 253f
000001f0: b4d6 92be 0bd7 e5bd 04b7 353e 802e 4abe
00000200: 6129 be3d 0882 d33c c22c ccbd 40c9 ae3d
00000210: 1623 98bd c7d0 213e a7eb 163f 77f4 ee3e
00000220: 8abf ccbe 78d6 09bd 6152 cd3e 9385 3ebe
00000230: 0b1d 11be bc46 97be d010 9bbe 6523 293f
00000240: 6f61 653e ad69 38be 8563 d33e 1146 3a3f
00000250: d1c1 66bd bd24 2abd bc9b d6bc 4dde 763d
00000260: 059a ab3e dd63 47be 2e19 b1be a337 023f
00000270: 40aa 66be 9ac5 d6bd e413 9d3e 14ed c3be
00000280: dc3c 3f3e 1e52 5abe b3f2 7d3e 2c75 82bc
00000290: c60b a53c a784 ba3a 7262 0fbe 396a c5bc
000002a0: 8288 68be 2c1b edbe 2a62 403d 0279 d73d
000002b0: 6ea4 693e 36ea 8e3d d058 923d 0bcc 91be
000002c0: 5817 33be 596b c3bd ec16 1f3f 9033 9339
000002d0: bdde 41be e503 1b3f 688d 623e 9023 bf3c
000002e0: 583f a8be d0c6 7dbe d220 fc3e f5a2 e33d
000002f0: 10b9 37be 05fd c33b 8cbc 2f3d 96df 9bbd
00000300: cc3a edbc af44 013e 8ffa 843d 7ee8 98bd
00000310: 59fa ccbd 0b4d 63bd 5a56 3c3d b83f 4e3d
00000320: fe66 293c 12f9 8c3e 9f45 703e e727 8bbe
00000330: cffd 2dbe 13e8 bfbd 671d 17bd 162b 6fbd
00000340: 72f6 863e 1573 94be 43ae 3ebe 7ea7 13bd
00000350: 5c5f 2f3f e8f0 9cbe 12da d13d 48c5 1bbd
00000360: 0dd1 2abe 1aac 9d3c 5259 433e 3d15 173e
00000370: b60c dcbe 7bd6 cc3d 0fc4 443f c08a 8a3d
00000380: 033a e33d 9265 2cbe de57 db3d e627 bfbd
00000390: c719 a73e cf38 bb3e 98b2 e13d 9350 ea3e
000003a0: a0c7 a43e c772 2d3c 64e1 0b3e 4034 a73e
000003b0: 8c8a d8ba 6e33 c5be e70b 0bbe fd71 bfbd
000003c0: 976b 85bd 6e47 863d ad44 c03e 79ea 70be
000003d0: b3e5 ba3e 4f8a a73e cb2a 27bd 0399 633e
000003e0: 9df6 d2be 17ad 493c fa56 9abd 9f2b 103e
000003f0: d51f 5abe 723a 053f 3c36 cfbb 037c 02be

fc2.bias f4 [64]
0.06769624 0.02174414 -0.11793039 0.106645375 0.12874605 -0.08687282 0.08277394 -0.13710418
0.15596966 -0.025849877 0.07911212 0.12543651 0.08563893 0.047402807 0.07669471 0.074945986
-0.03454132 0.07808968 0.18327953 0.19141264 0.12979431 0.10758848 0.21643052 0.09412452
-0.047477093 0.17596659 0.03992327 -0.06633229 0.0022685614 0.20743705 -0.16917555 0.15590294
-0.051571 0.117208585 -0.08013461 0.2017309 0.22470301 -0.0072713993 0.1074825 0.19920439
-0.0911641 0.18628111 0.11018702 0.08089719 0.11158188 0.0022601557 -0.013536951 0.09401968
0.2411791 -0.019296201 0.10961464 0.13953677 0.12401248 0.0661848 0.05556396 0.12877357
0.061465118 -0.04273504 0.063386425 0.049292125 -0.003202858 0.020726895 -0.11241312 0.22931899
00000000: 54a4 8a3d c420 b23c 7d85 f1bd e468 da3d
00000010: 01d6 033e 61ea b1bd 6285 a93d 0a65 0cbe
00000020: 83b6 1f3e 1fc3 d3bc 8905 a23d 6e72 003e
00000030: 7763 af3d 7229 423d 1e12 9d3d 487d 993d
00000040: 337b 0dbd 7bed 9f3d a1ad 3b3e ad01 443e
00000050: cde8 043e 5957 dc3d f69f 5d3e 5bc4 c03d
00000060: 5777 42bd 9630 343e 9586 233d 39d9 87bd
00000070: 25ac 143b 616a 543e 5b3c 2dbe 05a5 1f3e
00000080: 1d3c 53bd 0e0b f03d 9d1d a4bd 8c92 4e3e
00000090: 8c18 663e eb44 eebb c91f dc3d 3cfc 4b3e
000000a0: 3eb4 babd 7ac0 3e3e bba9 e13d 6dad a53d
000000b0: 0a85 e43d 1f1f 143b 16ca 5dbc 648d c03d
000000c0: a7f7 763e 1113 9ebc a47d e03d bae2 0e3e
000000d0: 41fa fd3d e58b 873d 0997 633d 38dd 033e
000000e0: d9c2 7b3d f00a 2fbd bed0 813d 8ae6 493d
000000f0: 0ae7 51bb 73cb a93c da38 e6bd 99d2 6a3e

fc3.weight f4 [80, 64]
0.19567545 -0.047579385 -0.7493435 0.1549683 0.012832641 0.106071696 -0.38144594 -0.3235578
0.076264895 -0.8425823 -0.35062316 0.15271418 0.018065056 -0.7869565 0.09930182 0.029350221
-0.45480874 -0.09224523 0.00052945275 -0.2548203 -0.8533162 0.010721796 0.015918259 -0.8423627
-1.0634475 0.13297 -0.72532034 -1.161807 -0.15857734 -0.5512788 -0.14219353 -0.61699116
-1.0491318 0.15200298 0.0017481652 0.19518016 -0.10993939 -0.029602462 0.08612779 0.05848671
-0.14453286 0.2568625 0.19786072 -0.18309529 -0.7365329 -0.62818724 -0.48539513 -0.014773284
0.08360427 -0.32790172 -0.04501643 0.08701221 -0.3399827 -0.8149809 -0.1591542 -0.537198
-0.79991406 0.06806457 -0.7728888 0.09339581 -0.458256 0.0019417941 -0.87956524 -0.010576581
0.15260239 0.1482168 -0.8738597 -0.063385464 0.030307326 -0.14857706 -0.5591721 -0.9487801
0.03910123 -1.533566 0.134117 0.061647397 0.0151352305 -0.8273979 0.025125174 0.009980364
-0.23124562 -0.11932827 -0.05892414 0.08811851 0.1706435 -0.5381967 -0.0036017315 -0.48735088
-0.8552186 -0.06398998 0.13909595 -1.164721 -0.08323553 -0.050368614 -1.1347042 -0.36783767
-0.91878146 0.08046576 0.19302335 0.22922973 0.052102644 -1.1921452 0.10111404 0.12227175
-1.4253879 0.20925368 0.07268885 -0.5844146 -1.1254784 -0.28815848 -1.12907 -0.6984542
0.08880457 -0.8806078 0.087390274 0.042894144 -0.41200322 -0.01936342 -0.15997268 -0.22645263
-0.34716538 0.085916266 -0.43971398 0.06273181 -0.81866896 -0.2737058 -0.26289704 -0.12781715
0.11901331 0.037687223 -0.09099857 -0.11060156 -0.2015327 0.21823926 0.1198444 -0.11776013
-0.5608306 -0.08907049 -1.1908085 0.09930314 -0.16871114 -0.09339595 0.13329275 -0.60923225
-0.07927095 0.03203749 -0.65107644 -0.05882111 -0.52013254 -0.113259666 -1.046519 -1.0674702
-0.12562154 0.06251597 -0.22654445 -0.063593335 -0.4942928 -0.036353238 0.056240864 -0.297232
-0.4084839 -0.10210503 0.17633364 -0.19049832 -0.26914012 -0.021486923 0.10206243 -0.8171995
0.029166969 0.084861286 0.02308982 0.08329356 -0.5242968 -0.12563758 -0.084266834 0.03409141
-0.12553687 0.007850185 -0.16437823 -0.20163792 -0.46131802 -0.8798965 0.06443619 0.12652476
0.15187606 0.0015540236 0.031361923 0.11615649 -0.63431424 -0.028845659 -0.11556112 -0.3784134
-0.01485018 -0.03401468 -0.4910099 -0.013308358 -0.8159645 -0.6727335 -0.5217267 -0.81823254
-0.3109096 0.00010936543 -0.4495134 0.13504006 0.09418578 -0.25809845 -0.17982005 -0.28906548
-0.5768065 -0.6664172 -0.13696598 -0.16141757 -0.43902043 -0.076854594 -0.41625017 -0.41954175
0.04213361 -0.23595084 -0.9386746 -0.3732706 0.026926028 0.073769525 -0.54605937 0.009154653
-0.59261936 0.00661705 -0.21290754 0.18875724 -0.42953554 -0.09446352 -0.019848298 -0.06717068
-0.2089928 0.12728117 0.20684324 -0.05577348 -0.018127857 -0.41385487 -0.103181794 -0.0037756038
-0.19229709 0.15143372 -0.07642481 -0.1688001 0.14289217 -0.2741669 0.10833954 0.01728213
-0.50915426 0.1317311 -0.19572997 -0.34654877 -0.7345392 -1.2633106 0.04957773 0.25727007
00000000: 255f 483e 9ae2 42bd fad4 3fbf 03b0 1e3e
00000010: ff3f 523c 1e3c d93d e24c c3be 5ea9 a5be
00000020: c530 9c3d 79b3 57bf e184 b3be 1b61 1c3e
00000030: 2bfd 933c fb75 49bf c15e cb3d e06f f03c
00000040: b1dc e8be 11eb bcbd f9ca 0a3a ce77 82be
00000050: ee72 5abf 79aa 2f3c 0267 823c 15a5 57bf
00000060: 0c1f 88bf 4a29 083e 98ae 39bf 17b6 94bf
00000070: 1962 22be 9c20 0dbf 2e9b 11be 22f3 1dbf
00000080: f349 86bf aba6 1b3e b122 e53a 4fdd 473e
00000090: e727 e1bd dd80 f2bc c463 b03d c38f 6f3d
000000a0: 6c00 14be 7b83 833e 009c 4a3e 557d 3bbe
000000b0: 6c8d 3cbf e1d0 20bf b685 f8be a50b 72bc
000000c0: b738 ab3d bce2 a7be 2663 38bd 7533 b23d
000000d0: 3612 aebe 97a2 50bf 52f9 22be cf85 09bf
000000e0: 2bc7 4cbf 7065 8b3d 0adc 45bf 4d46 bf3d
000000f0: 88a0 eabe cc83 fe3a 302b 61bf 6549 2dbc
00000100: cd43 1c3e 25c6 173e 45b5 5fbf 3dd0 81bd
00000110: 1247 f83c 9624 18be e725 0fbf 41e3 72bf
00000120: 9d28 203d e44b c4bf f855 093e fb81 7c3d
00000130: c2f9 773c 59d0 53bf 4fd3 cd3c ae84 233c
00000140: a7cb 6cbe 6162 f4bd 705a 71bd 7a77 b43d
00000150: 2bbd 2e3e 42c7 09bf 070b 6cbb 0e86 f9be
00000160: 9bef 5abf 2e0d 83bd 2b6f 0e3e 9415 95bf
00000170: 6477 aabd 524f 4ebd fd3d 91bf 3855 bcbe
00000180: 4335 6bbf 3bcb a43d eaa7 453e 33bb 6a3e
00000190: 9569 553d 3798 98bf e114 cf3d 9c69 fa3d
000001a0: 1c73 b6bf 9946 563e e4dd 943d 329c 15bf
000001b0: ad0f 90bf 8289 93be 5e85 90bf e5cd 32bf
000001c0: 2cdf b53d 836f 61bf acf9 b23d c5b1 2f3d
000001d0: 16f2 d2be 09a0 9ebc e1cf 23be 33e3 67be
000001e0: a9bf b1be def4 af3d 3122 e1be 8979 803d
000001f0: 4a94 51bf 2b23 8cbe 719a 86be 80e2 02be
00000200: 40bd f33d eb5d 1a3d 755d babd 1283 e2bd
00000210: 975e 4ebe 1d7a 5f3e fb70 f53d 392c f1bd
00000220: 9892 0fbf 976a b6bd 6a6c 98bf 725f cb3d
00000230: 9dc2 2cbe 6046 bfbd e57d 083e a5f6 1bbf
00000240: cf58 a2bd be39 033d f2ac 26bf 67ee 70bd
00000250: 6827 05bf aff4 e7bd 56f4 85bf dda2 88bf
00000260: efa2 00be 5f08 803d 45fb 67be 393d 82bd
00000270: f213 fdbe 22e7 14bd d25c 663d cb2e 98be
00000280: cd24 d1be 711c d1bd ce90 343e fe11 43be
00000290: bccc 89be 5805 b0bc 1b06 d13d fd33 51bf
000002a0: 91ef ee3c c1cb ad3d dd26 bd3c d095 aa3d
000002b0: 5138 06bf 23a7 00be 1794 acbd 6fa3 0b3d
000002c0: bd8c 00be 109e 003c c452 28be 2c7a 4ebe
000002d0: e031 ecbe e640 61bf 1ff7 833d b58f 013e
000002e0: 6685 1b3e 61b0 cb3a 5c75 003d 74e3 ed3d
000002f0: 6b62 22bf bb4d ecbc 4fab ecbd 67bf c1be
00000300: 2b4e 73bc fa52 0bbd a665 fbbe 4d0b 5abc
00000310: 0de3 50bf 4338 2cbf e28f 05bf b077 51bf
00000320: 8b2f 9fbe 1e5b e538 9f26 e6be f147 0a3e
00000330: 79e4 c03d 7b25 84be bf22 38be 6400 94be
00000340: 97a9 13bf 519a 2abf cf40 0cbe a64a 25be
00000350: 49c7 e0be f165 9dbd be1e d5be 2dce d6be
00000360: 4b94 2c3d 199d 71be fb4c 70bf 531d bfbe
00000370: f993 dc3c 7a14 973d 8cca 0bbf 66fd 153c
00000380: e7b5 17bf d7d3 d83b 6f04 5abe 9449 413e
00000390: 15ec dbbe 1776 c1bd e698 a2bc c890 89bd
000003a0: 3502 56be ff55 023e b7ce 533e bc72 64bd
000003b0: df80 94bc c9e4 d3be fa50 d3bd 1f70 77bb
000003c0: 87e9 44be 7111 1b3e 9c84 9cbd efd9 2cbe
000003d0: 5352 123e 9b5f 8cbe 1fe1 dd3d 4193 8d3c
000003e0: ef57 02bf 84e4 063e 706d 48be d76e b1be
000003f0: c30a 3cbf 29b4 a1bf 0512 4b3d e7b8 833e

fc3.bias f4 [80]
0.08312993 0.04655162 -0.52731144 0.14590532 -0.1529485 -0.048345808 -0.124002285 -0.06108193
-0.3354664 -0.049495302 0.03313353 -0.18687221 -0.26199386 0.12433585 -0.07612954 0.034157947
-0.21599068 0.2252775 0.21566717 -0.20629373 0.027529195 0.11405922 0.23473825 -0.021945605
0.14127696 -0.15668114 0.1969445 0.26106536 0.15230265 0.0080363285 -0.001447191 -0.07775288
-0.18495116 -0.22971663 0.12765846 -0.19551896 0.1038469 0.07261063 -0.13339393 0.113552436
-0.16482453 -0.008045248 0.005103137 -0.011454823 -0.013736936 -0.03649081 -0.21593152 -0.11087473
-0.18276101 0.10202005 0.09376898 -0.117048986 -0.07890108 0.20424491 0.08917721 -0.040020008
-0.2703577 -0.088962376 -0.0556358 0.09345557 0.13121864 0.106284045 0.18313968 0.1406041
-0.19848742 0.13499221 -0.2144396 -0.046693426 0.15826687 -0.08333043 0.1034443 0.06426091
-0.11100393 0.031887446 -0.052614037 0.14351507 -0.16254456 0.1630678 0.006666871 0.048824023
00000000: 0640 aa3d e9ac 3e3d e2fd 06bf 3468 153e
00000010: 889e 1cbe 4106 46bd e9f4 fdbd 0c31 7abd
00000020: 41c2 abbe 96bb 4abd 06b7 073d 6e5b 3fbe
00000030: 0f24 86be cba3 fe3d cee9 9bbd 34e9 0b3d
00000040: a92c 5dbe 25af 663e dbd7 5c3e aa3e 53be
00000050: e884 e13c e197 e93d 395f 703e 45c7 b3bc
00000060: e8aa 103e 0571 20be d2ab 493e 5caa 853e
00000070: 3af5 1b3e ceaa 033c acaf bdba e73c 9fbd
00000080: d663 3dbe d63a 6bbe e6b8 023e 1f36 48be
00000090: afad d43d e2b4 943d 6b98 08be 2e8e e83d
000000a0: c3c7 28be 37d0 03bc 3738 a73b 03ad 3bbc
000000b0: e310 61bc 6377 15bd 271d 5dbe 4a12 e3bd
000000c0: b425 3bbe e3ef d03d f309 c03d 61b7 efbd
000000d0: e496 a1bd 9425 513e 8ba2 b63d 05ec 23bd
000000e0: 536c 8abe e831 b6bd 5de2 63bd a265 bf3d
000000f0: 2e5e 063e 73ab d93d f888 3b3e 85fa 0f3e
00000100: 4940 4bbe 663b 0a3e 0e96 5bbe 9b41 3fbd
00000110: b610 223e 25a9 aabd 9bda d33d 399b 833d
00000120: 0756 e3bd 699c 023d d181 57bd 9df5 123e
00000130: 1572 26be 3ffb 263e c475 da3b b3fb 473d
