rso_chatbot_model.pth (torch, 211789 bytes, 6 tensors)

fc1.weight f4 [128, 309]
-0.14551647 -0.0367438 -0.17790824 0.08477768 0.017018592 -0.24985613 -0.03910861 0.29797938
-0.016405124 -0.16977225 0.082198694 0.14114597 -0.10304573 -0.14919277 0.3311209 0.022795154
-0.09006836 -0.05539752 0.037897162 -0.21520683 -0.092978105 -0.031102601 -0.24722937 0.11642512
-0.0067780605 0.044826638 -0.14085954 -0.0453628 0.06368169 -0.047262803 -0.028423088 0.22874452
0.17464404 0.19895537 0.06552443 -0.11958003 -0.14199288 -0.20450199 0.06028139 0.054742575
-0.12112395 0.5314888 0.27070844 0.32000905 -0.23757601 -0.054195043 -0.07806251 -0.12235865
-0.114394 -0.13611804 0.07025919 0.30659974 -0.007560862 -0.3294021 -0.023541259 0.19813865
0.2539069 0.012245552 -0.25537184 -0.22514035 0.070438124 -0.16798125 -0.18540764 -0.07175652
-0.053403653 0.1377999 0.018370181 0.25999814 0.061489377 -0.0024642365 -0.05861291 -0.09039449
0.16702001 -0.060486928 -0.17899613 0.048096042 0.04859073 -0.094515644 -0.18868993 -0.10191289
0.0061071557 0.025507312 -0.25962302 0.4842578 -0.17471333 0.20479661 0.022102358 -0.22881138
-0.09281521 -0.023715105 -0.09953245 -0.06492531 -0.08320572 0.040845834 -0.08549725 -0.12903099
0.010325333 0.012658127 -0.102508694 -0.082719885 0.2908299 0.032334656 0.05277703 0.0070811207
-0.22779667 0.110956535 -0.1349411 -0.1619513 0.3383443 0.15204196 0.16267814 -0.023475451
-0.09066761 -0.0066371523 -0.177428 0.3458677 -0.08391194 -0.08692792 -0.07238712 -0.056704566
-0.006894704 -0.093482986 0.2284686 0.27085355 0.2404897 0.021549474 0.19311945 0.31423265
-0.09951144 -0.02814142 -0.07017727 -0.0464932 -0.13111879 0.051776603 -0.10465937 0.03208658
-0.104742676 -0.07428739 0.02728598 -0.013087252 -0.0016576035 -0.0846524 -0.06484886 0.009359798
-0.22609398 0.4788491 0.05615377 -0.10347892 -0.03677763 -0.08315194 0.16974986 -0.023667634
-0.19099362 -0.029044226 0.29408678 -0.0037234044 -0.09346126 -0.08162591 0.009759284 0.031357966
-0.24591169 -0.15368408 -0.26841876 0.026370073 -0.031858604 -0.19213873 -0.16222091 -0.063753426
0.25490677 -0.21728773 -0.08468194 -0.04572724 -0.09833111 -0.06156045 0.40669382 -0.026430067
-0.011717583 -0.102511905 0.03922259 -0.12643927 -0.111824796 -0.044567585 -0.016565902 -0.006671445
-0.07934239 -0.13452898 -0.035858672 -0.23404674 0.3041479 -0.11196306 -0.07260246 -0.029635921
-0.17439207 0.11898112 0.067874335 0.5148315 -0.251984 -0.063037254 -0.13918476 0.0017390389
-0.051468495 -0.048285175 -0.13531643 9.623095e-05 0.11015473 -0.13476455 -0.21001092 0.08780346
0.07272262 0.054255106 -0.1172676 0.274541 -0.17449075 -0.124706 0.3026142 -0.15413602
0.34345433 0.22352093 0.027419582 0.062187143 -0.07298637 -0.21233097 -0.072060466 -0.097167365
-0.1418223 0.109113544 -0.09666029 0.0690906 -0.18235181 -0.056702554 0.015603462 0.2549262
-0.10378333 0.18418603 -0.17369945 -0.009644743 -0.1371095 -0.10458163 0.26661202 -0.11230863
0.0022521988 -0.14853415 0.09381001 -0.19317247 -0.14023086 0.11274183 -0.093212835 0.074499294
-0.048978213 0.24779807 -0.13374999 -0.09002778 -0.08679453 -0.08220229 0.005725179 -0.2657522
00000000: 4502 15be ab80 16bd 942d 36be ec9f ad3d
00000010: 936a 8b3c 49da 7fbe 5a30 20bd c190 983e
00000020: 0a64 86bc c7d8 2dbe ca57 a83d 9288 103e
00000030: a409 d3bd fdc5 18be ae88 a93e e7bc ba3c
00000040: c375 b8bd 83e8 62bd 0e3a 1b3d 2e5f 5cbe
00000050: 4e6b bebd e2ca febc b229 7dbe 4b70 ee3d
00000060: 7e1a debb 239c 373d 7c3d 10be 58ce 39bd
00000070: 8c6b 823d a496 41bd 89d7 e8bc 013c 6a3e
00000080: e3d5 323e f5ba 4b3e ac31 863d 60e6 f4bd
00000090: 9566 11be f868 51be 9ee9 763d c039 603d
000000a0: d50f f8bd a60f 083f 4c9a 8a3e 3ad8 a33e
000000b0: 2047 73be 9ffb 5dbd 3ddf 9fbd 2c97 fabd
000000c0: 6747 eabd 8762 0bbe 0de4 8f3d a4fa 9c3e
000000d0: 1cc1 f7bb 64a7 a8be 99d9 c0bc dce4 4a3e
000000e0: 1600 823e 91a1 483c 19c0 82be 318b 66be
000000f0: dd41 903d 4703 2cbe 80db 3dbe 15f5 92bd
00000100: cabd 5abd 6b1b 0d3e 107d 963c 7a1e 853e
00000110: 49dc 7b3d 077f 21bb 1714 70bd bf20 b9bd
00000120: 4b07 2b3e 24c1 77bd c34a 37be 5b00 453d
00000130: 1307 473d 6b91 c1bd ef37 41be b5b7 d0bd
00000140: 891e c83b b6f4 d03c 4fed 84be a3f0 f73e
00000150: 0de8 32be 34b6 513e 0110 b53c 884d 6abe
00000160: e715 bebd 2e46 c2bc abd7 cbbd 90f7 84bd
00000170: c367 aabd f64d 273d 2f19 afbd b320 04be
00000180: 962b 293c 0864 4f3c 14f0 d1bd 0b69 a9bd
00000190: a8e7 943e 5871 043d ba2c 583d bf08 e83b
000001a0: 8843 69be 2e3d e33d 002e 0abe 90d6 25be
000001b0: 773b ad3e e3b0 1b3e 1995 263e 974f c0bc
000001c0: f1af b9bd 787c d9bb b0af 35be 9215 b13e
000001d0: 06da abbd 4407 b2bd b33f 94bd 0c43 68bd
000001e0: f8ec e1bb 0274 bfbd acf3 693e 51ad 8a3e
000001f0: ef42 763e 8688 b03c 1bc1 453e 1ae3 a03e
00000200: a7cc cbbd d688 e6bc 1ab9 8fbd a76f 3ebd
00000210: 0144 06be b413 543d a757 d6bd 386d 033d
00000220: 5483 d6bd fd23 98bd d986 df3c ea6b 56bc
00000230: f243 d9ba 3d5e adbd 7bcf 84bd d759 193c
00000240: 2e85 67be b62b f53e 7f01 663d c2ec d3bd
00000250: 24a4 16bd 904b aabd e8d2 2d3e a0e2 c1bc
00000260: d593 43be 28ee edbc 8b92 963e 5c04 74bb
00000270: 9e68 bfbd 7c2b a7bd 67e5 1f3c 3671 003d
00000280: 46d0 7bbe 5c5f 1dbe 2f6e 89be 0d06 d83c
00000290: 2b7e 02bd 04c0 44be 3d1d 26be 2891 82bd
000002a0: 2483 823e ad80 5ebe ba6d adbd 7d4c 3bbd
000002b0: d261 c9bd cf26 7cbd 2c3a d03e de83 d8bc
000002c0: 1bfb 3fbc c3f1 d1bd dea7 203d 4c79 01be
000002d0: 6604 e5bd 808c 36bd 37b5 87bc 239c dabb
000002e0: 437e a2bd f7c1 09be 8be0 12bd f3a9 6fbe
000002f0: 46b9 9b3e e44c e5bd 99b0 94bd 08c7 f2bc
00000300: d693 32be 60ac f33d b301 8b3d ffcb 033f
00000310: 0c04 81be ad19 81bd 7386 0ebe 76f0 e33a
00000320: a1d0 52bd adc6 45bd 6490 0abe 99cf c938
00000330: ce98 e13d b8ff 09be 1a0d 57be 4dd2 b33d
00000340: 99ef 943d 9a3a 5e3d ff29 f0bd a390 8c3e
00000350: b4ad 32be dc65 ffbd 40f0 9a3e d5d5 1dbe
00000360: 3fd9 af3e ace2 643e 089f e03c f2b7 7e3d
00000370: e179 95bd 4a6d 59be 7094 93bd afff c6bd
00000380: dd39 11be ec76 df3d d5f5 c5bd 5f7f 8d3d
00000390: 6fba 3abe f040 68bd aaa5 7f3c b085 823e
000003a0: 5b8c d4bd 439b 3c3e 45de 31be fc04 1ebc
000003b0: 6f66 0cbe e52e d6bd 5f81 883e 1102 e6bd
000003c0: a099 133b 5619 18be 761f c03d 01cf 45be
000003d0: ae98 0fbe 30e5 e63d 5fe6 bebd 1693 983d
000003e0: 619d 48bd c7be 7d3e c2f5 08be 7c60 b8bd
000003f0: 55c1 b1bd ad59 a8bd 489a bb3b ac10 88be

fc1.bias f4 [128]
0.22670618 0.15677676 0.12782928 0.09943487 0.1835329 0.061195087 0.038015705 0.106081
0.102477685 0.15849695 0.17270449 0.07150586 0.063676514 0.07674944 0.12514108 0.1892027
0.10839801 0.16203204 0.08706171 0.11306426 0.12432408 0.18381786 0.07348765 0.12505388
0.18937941 0.20240352 0.08455813 0.06191801 0.117152795 0.11631715 0.13601783 0.17483968
0.12875247 0.047869124 0.13884185 0.1185592 0.17170498 0.14100187 0.12986957 0.17704959
0.14734559 0.1540984 0.08699863 0.13184573 0.058116574 0.12378187 0.15327676 0.17080696
0.10929497 0.081407726 0.14806488 0.051596913 0.15632614 0.13414164 0.08215083 0.14551833
0.057738177 0.12318101 0.13564782 0.12134756 0.14458893 0.053726718 0.10605039 0.13339713
0.11316667 0.12089872 0.12015129 0.09222943 0.1886562 0.14521134 0.15202855 0.07486863
0.1961888 0.16795816 0.09302568 0.18333656 0.15449364 0.098894745 0.16790363 0.15911633
0.10951644 0.14400496 0.10054396 0.13437651 0.1146516 0.09132817 0.14694922 0.15749666
0.174786 0.19207916 0.09971538 0.12908936 0.03189577 0.16061896 0.15981027 0.116882466
0.11942264 0.106987074 0.19097233 0.099770166 0.1528665 0.1426347 0.13761096 0.09832455
0.09771225 0.059944212 0.13104564 0.1440972 0.121810704 0.16379443 0.14907053 0.17590588
0.05765232 0.13467295 0.15151666 0.19701003 0.15417045 0.17236829 0.18884075 0.13576077
0.13578665 0.13054068 0.12534027 0.1295845 0.089929156 0.13343368 0.088218555 0.17606482
00000000: aa25 683e 168a 203e aee5 023e 82a4 cb3d
00000010: 0cf0 3b3e b3a7 7a3d 5bb6 1b3d ff40 d93d
00000020: d2df d13d 064d 223e 72d9 303e aa71 923d
00000030: d568 823d cf2e 9d3d fc24 003e 5abe 413e
00000040: c7ff dd3d baeb 253e 694d b23d 3c8e e73d
00000050: a09d fe3d c03a 3c3e b180 963d 200e 003e
00000060: adec 413e de42 4f3e d02c ad3d bd9d 7d3d
00000070: ceed ef3d b037 ee3d 4248 0b3e 2c09 333e
00000080: b0d7 033e 6a12 443d 8f2c 0e3e 2acf f23d
00000090: 6ed3 2f3e cb62 103e 87fc 043e 7d4c 353e
000000a0: c3e1 163e f9cb 1d3e 562c b23d 9102 073e
000000b0: a50b 6e3d 5981 fd3d 95f4 1c3e 05e8 2e3e
000000c0: 0bd6 df3d 18b9 a63d 529e 173e 4957 533d
000000d0: f613 203e 6d5c 093e b23e a83d c202 153e
000000e0: de7e 6c3d 5346 fc3d 43e7 0a3e 1285 f83d
000000f0: 1f0f 143e 8c10 5c3d f230 d93d 4299 083e
00000100: edc3 e73d c099 f73d e111 f63d c9e2 bc3d
00000110: 172f 413e 48b2 143e 5fad 1b3e b954 993d
00000120: b7e5 483e 39fd 2b3e 3f84 be3d 94bc 3b3e
00000130: 9533 1e3e 5489 ca3d eeee 2b3e 64ef 223e
00000140: 284a e03d 0976 133e fee9 cd3d ff99 093e
00000150: 75ce ea3d 430a bb3d db79 163e ce46 213e
00000160: 1afb 323e 66b0 443e 9437 cc3d 0030 043e
00000170: 24a5 023d 4c79 243e 4ea5 233e 1360 ef3d
00000180: db93 f43d 0a1c db3d 408e 433e 4d54 cc3d
00000190: 0989 1c3e d50e 123e e3e9 0c3e 625e c93d
000001a0: 5c1d c83d 1088 753d d430 063e 378e 133e
000001b0: e477 f93d bab9 273e f2a5 183e ac20 343e
000001c0: d724 6c3d b5e7 093e 2f27 1b3e ffbc 493e
000001d0: dcde 1d3e 5081 303e 785f 413e df04 0b3e
000001e0: a80b 0b3e 75ac 053e 3359 003e cdb1 043e
000001f0: c72c b83d d7a2 083e eeab b43d 564a 343e

fc2.weight f4 [64, 128]
0.1577963 -0.036815032 0.26247263 -0.026770635 0.21882309 -0.21594755 0.33577994 -0.4120196
0.23362254 -0.14813517 -0.13892008 -0.27973697 0.37572867 -0.18027227 -0.3622733 -0.38830656
-0.06594541 -0.14953591 0.21513857 -0.4318103 0.0865453 -0.45078036 0.85646343 0.30071265
-0.19554907 0.32433015 -0.2851715 -0.16332388 -0.02945585 0.32813635 -0.069402546 0.004658763
0.100963496 -0.3169477 -0.24693249 -0.41285416 0.08567495 -0.14465836 -0.08284429 0.15817519
0.4780663 -0.15098983 0.29966566 0.30703467 0.0067264712 -0.2348015 -0.22944465 -0.63040024
0.31631705 -0.13429217 0.03285446 -0.037983805 -0.2828655 -0.31717432 0.08046211 0.3506805
0.13621342 -0.23900816 -0.046093363 -0.031111453 0.13409753 -0.27538323 0.36106262 0.6103879
0.046740916 0.104314424 0.8275706 -0.27992314 0.78276926 0.32634643 0.0607935 0.03006306
0.10580651 0.11332978 -0.12438727 0.5130169 -0.20825236 0.10181083 0.3031615 0.38167515
0.061445355 -0.10631613 -0.18770619 -0.16883759 0.23490156 0.2600459 -0.08696974 0.44408092
-0.16638204 0.15656838 -0.15103701 0.4540843 -0.14728741 0.62036175 0.086781524 0.040513165
-0.13476674 0.09604667 -0.1260466 -0.21720983 0.24038076 0.26313373 -0.092542276 0.084179245
-0.14682901 -0.04651499 0.1998857 0.56671625 0.26588696 0.033497848 0.5268948 0.04320519
0.13994469 0.06728544 0.04834516 0.41080546 0.15856391 -0.6234891 -0.15988234 0.0501293
0.28762835 0.026121506 0.087015025 0.39491525 0.035371806 -0.09035398 -0.15372431 -0.35409108
0.42238802 0.092139505 -0.06086075 0.019959489 -0.28627524 0.05894251 -0.30353767 0.16678262
0.005670212 -0.23917021 -0.0845079 0.25954324 -0.079792015 -0.16540515 -0.03200014 0.27029794
0.2885758 0.19030674 -0.08319114 -0.026342787 -0.08365207 -0.26942965 0.20870635 0.28505564
-0.21388225 -0.112326644 -0.15150535 -0.32733622 -0.044294946 -0.075471185 0.6592027 0.0017526255
-0.032637905 -0.030155195 0.0774029 0.1556951 -0.0038686395 -0.20249538 0.040148888 -0.24881607
-0.22253373 -0.13417889 0.18856049 0.10647683 0.31750032 0.12402751 0.044706464 -0.061967943
-0.16912912 -0.15135682 -0.16754179 -0.042436954 -0.17398888 0.13880515 0.45542747 0.73075545
0.27687398 -0.073809214 0.71547085 0.03524014 -0.017293746 -0.2567116 -0.051870953 0.057196386
0.115278825 0.6883577 0.2117184 -0.20776775 0.37388217 0.27339742 -0.24893542 -0.27874336
0.10988646 -0.037500553 0.014086457 0.22927953 -0.041070286 -0.07834622 -0.031340495 0.3510048
0.54154414 -0.108836874 0.18248986 0.21649452 -0.073890656 -0.24156861 -0.19246238 -0.30640808
-0.0750307 0.21996321 0.07287406 0.35235244 -0.2258938 -0.08727899 -0.04847185 -0.19830242
-0.19483127 -0.63052756 -0.006330261 0.13480726 -0.023437617 0.14429359 0.06811917 0.23533694
-0.055688236 -0.0066456967 0.020994231 0.19246207 0.70782685 0.18001626 0.6997025 0.031591747
0.1788125 -0.002345404 -0.19256124 0.39553735 0.743637 -0.068059966 0.1268839 0.26063412
0.2334405 -0.21865064 0.43371606 0.6763627 -0.042232886 -0.3881551 0.10068482 0.015483003
00000000: 5a95 213e 5ccb 16bd d062 863e 174e dbbc
00000010: 2913 603e 5b21 5dbe 59eb ab3e 3cf4 d2be
00000020: bf3a 6f3e bfb0 17be 1141 0ebe af39 8fbe
00000030: 825f c03e 4b99 38be e37b b9be 1ed0 c6be
00000040: 630e 87bd f11f 19be 494d 5c3e 3d16 ddbe
00000050: aa3e b13d afcc e6be 3041 5b3f 02f7 993e
00000060: 043e 48be 9a0e a63e 0002 92be 603e 27be
00000070: 654d f1bc 7d01 a83e ec22 8ebd 89a8 983b
00000080: f3c5 ce3d f846 a2be dfdb 7cbe 9f61 d3be
00000090: 5976 af3d 5221 14be 44aa a9bd adf8 213e
000000a0: 1bc5 f43e 149d 1abe c76d 993e a633 9d3e
000000b0: bb69 dc3b ce6f 70be 8af3 6abe e961 21bf
000000c0: 4ff4 a13e e383 09be 6692 063d e894 1bbd
000000d0: bfd3 90be ac64 a2be 52c9 a43d 658c b33e
000000e0: 887b 0b3e 8ebe 74be 65cc 3cbd 72dd febc
000000f0: dd50 093e 08ff 8cbe 33dd b83e 6242 1c3f
00000100: 6773 3f3d cda2 d53d abdb 533f 1652 8fbe
00000110: 9163 483f e116 a73e 9b02 793d ce46 f63c
00000120: 15b1 d83d 7219 e83d c1be febd 1355 033f
00000130: 1b40 55be 3282 d03d fc37 9b3e ed6a c33e
00000140: 20ae 7b3d 45bc d9bd 0d36 40be c3e3 2cbe
00000150: 098a 703e bc24 853e 311d b2bd 935e e33e
00000160: 0e60 2abe 7653 203e 72a9 1abe bd7d e83e
00000170: 83d2 16be 07d0 1e3f 83ba b13d 22f1 253d
00000180: 4b00 0abe 1eb4 c43d 5c12 01be 416c 5ebe
00000190: 6026 763e 77b9 863e ce86 bdbd 2b66 ac3d
000001a0: 585a 16be 8186 3ebd d6ae 4c3e 5114 113f
000001b0: 5622 883e 0a35 093d 94e2 063f edf7 303d
000001c0: a94d 0f3e f3cc 893d 9305 463d 1855 d23e
000001d0: 945e 223e fb9c 1fbf 32b8 23be 6254 4d3d
000001e0: 0644 933e c5fc d53c ef34 b23d 5532 ca3e
000001f0: 07e2 103d 820b b9bd e869 1dbe 6d4b b5be
00000200: 3e43 d83e a3b3 bc3d 1f49 79bd 1582 a33c
00000210: ab92 92be b46d 713d 4a69 9bbe 10c9 2a3e
00000220: 30cd b93b 09e9 74be 7a12 adbd dae2 843e
00000230: ff69 a3bd f85f 29be 9412 03bd 7e64 8a3e
00000240: 35c0 933e c5df 423e 1e60 aabd d4cc d7bc
00000250: c751 abbd aff2 89be 1eb7 553e d0f2 913e
00000260: f303 5bbe 830b e6bd 3824 1bbe 9d98 a7be
00000270: 9e6e 35bd a390 9abd 82c1 283f 5ab8 e53a
00000280: 53af 05bd 0708 f7bc 6985 9e3d 896e 1f3e
00000290: 0089 7dbb f35a 4fbe 2973 243d a4c9 7ebe
000002a0: e2df 63be 3166 09be 0016 413e 8610 da3d
000002b0: 678f a23e 2302 fe3d 201e 373d 19d2 7dbd
000002c0: 2f30 2dbe 48fd 1abe 1390 2bbe 5fd2 2dbd
000002d0: 242a 32be f022 0e3e ca2d e93e ca12 3b3f
000002e0: 6dc2 8d3e 4929 97bd 1929 373f f757 103d
000002f0: 9dab 8dbc b46f 83be a376 54bd c246 6a3d
00000300: 4e17 ec3d 3638 303f b5cc 583e 12c1 54be
00000310: 7c6d bf3e bffa 8b3e ede8 7ebe 73b7 8ebe
00000320: 270c e13d 2e9a 19bd e2ca 663c 41c8 6a3e
00000330: 5139 28bd fc73 a0bd e45e 00bd e7b6 b33e
00000340: a3a2 0a3f dee5 debd 9fde 3a3e bdb0 5d3e
00000350: fc53 97bd c35d 77be dc14 45be 85e1 9cbe
00000360: b2a9 99bd 093e 613e ff3e 953d 8a67 b43e
00000370: b450 67be 54bf b2bd 6b8a 46bd ca0f 4bbe
00000380: d981 47be 416a 21bf 146e cfbb ea0a 0a3e
00000390: 3f00 c0bc b3c1 133e 1082 8b3d 2bfc 703e
000003a0: 5919 64bd 25c4 d9bb 18fc ab3c c714 453e
000003b0: 2434 353f 2f56 383e b41f 333f 5966 013d
000003c0: a01a 373e 59b5 19bb c62e 45be df83 ca3e
000003d0: ff5e 3e3f 0663 8bbd daed 013e d671 853e
000003e0: 070b 6f3e f4e5 5fbe 0810 de3e 1b26 2d3f
000003f0: 64fc 2cbd 44bc c6be d833 ce3d 6cac 7d3c

fc2.bias f4 [64]
0.06483905 0.08671079 -0.072130695 0.03592691 0.15898706 0.07910294 0.15988488 0.13251501
-0.092769645 0.15522785 -0.050399054 0.18854553 0.045930386 0.051457208 0.04584504 -0.065624945
0.1276964 0.18448618 0.14901507 0.23270851 0.09549236 0.14695743 0.16266586 -0.23003088
0.13948236 0.1439034 0.10856994 0.17316203 0.16709979 0.1308473 0.026444057 -0.017888064
0.16740948 0.012059378 0.15122703 -0.102778606 0.013381252 0.05022896 0.06421011 -0.10064196
0.14507695 -0.028935172 0.13888156 0.011921135 0.1053651 0.11361642 0.055879757 0.112127975
0.14063144 0.06881496 0.028723221 -0.07959328 -0.1332863 -0.04415291 0.11631932 -0.12537412
0.14036383 0.0521388 0.059250187 -0.16328129 -0.066488944 0.21768102 0.10849153 -0.023385042
00000000: 56ca 843d 6d95 b13d 42b9 93bd 1828 133d
00000010: 81cd 223e b900 a23d ddb8 233e 04b2 073e
00000020: 03fe bdbd 0df4 1e3e 3d6f 4ebd 1412 413e
00000030: 8021 3c3d cbc4 523d 02c8 3b3d 5f66 86bd
00000040: d8c2 023e f2e9 3c3e 6897 183e 244b 6e3e
00000050: 8091 c33d 027c 163e e191 263e 378d 6bbe
00000060: 77d4 0e3e 6a5b 133e eb59 de3d 6351 313e
00000070: 351c 2b3e d6fc 053e 35a1 d83c fd89 92bc
00000080: 646d 2b3e b394 453c 42db 1a3e 977d d2bd
00000090: 0a3d 5b3c e2bc 4d3d 9780 833d 5f1d cebd
000000a0: 0d8f 143e 7409 edbc f836 0e3e dd50 433c
000000b0: a8c9 d73d baaf e83d 2ce2 643d 5aa3 e53d
000000c0: b001 103e dcee 8c3d f64c eb3c cd01 a3bd
000000d0: 347c 08be afd9 34bd d338 ee3d 1362 00be
000000e0: 89bb 0f3e 7f8f 553d 53b0 723d 3633 27be
000000f0: 5b2b 88bd c6e7 5e3e cf30 de3d fd91 bfbc

fc3.weight f4 [65, 64]
-0.22311983 -0.028775038 0.12331525 -0.6991368 -0.73109573 -0.50198734 0.1667244 0.101288326
-0.114507094 0.094885536 -0.9622455 -0.3165532 -0.053438935 -0.24700625 -0.0028266455 -0.044307232
-0.73581606 -0.19274442 -0.27258113 0.0019698357 0.082447514 0.1612405 0.23134929 0.11817122
-0.3842558 -1.0321183 -0.8999718 0.014645676 -0.34822625 -0.72290844 0.17341635 0.10553817
0.12770833 0.032557797 0.13687053 -0.079306245 0.10733004 0.10628064 0.117948614 -0.14488202
-0.27928683 0.014503104 -0.45198736 -0.24001178 -0.29331645 -0.8579417 -0.6474057 -0.1411986
-0.35275748 0.046822667 -0.066104904 0.036858704 -0.005981321 -0.49582615 0.15489502 0.1337698
0.043739017 -0.45566514 0.033799924 0.1090678 -0.3623569 -0.112015806 -0.10265187 0.14777483
-0.10646282 -0.28211844 0.111919776 -0.35357404 -0.7321058 -0.07256985 0.039548658 -0.015263754
-0.079089954 0.08947642 -0.023608504 -0.34547865 0.16728127 -0.935935 0.20410816 -1.0376134
0.16024962 -0.6322 0.08739621 -0.61508954 0.17148939 -0.4077227 0.029137028 -0.06996701
-0.69651 -0.6278365 -0.6608413 0.104400925 0.0075839353 -0.24912034 0.15549351 -0.66996735
0.13479608 0.023440117 -0.010827929 0.023029415 -0.1963403 -0.011884415 0.0076756575 -0.5691114
-0.2883087 0.09204128 0.18041581 -0.78897727 0.10767265 0.10960741 0.028224608 -0.3342812
0.05307861 0.111767314 -0.06702073 0.15637589 -0.16415083 0.0025085781 0.19594483 -0.7454564
0.012439863 -0.8576605 -0.017423606 0.05770771 0.015977552 -0.15716256 -0.16945572 -0.010797232
-0.78651154 -0.16540918 -0.009215919 0.007996929 0.13089284 -0.7643156 -0.19998387 -0.78548944
-0.14331529 -0.11004279 0.020912038 0.053116806 -0.8252774 0.13992743 0.15209626 0.048444845
-0.0029187584 0.10035027 -0.56124794 -0.31229636 -0.06869575 0.044888485 -0.21350333 -0.08876459
0.06140647 -0.35255504 -0.079690404 -0.50460064 0.03451681 0.09888789 0.087468304 0.17267022
-0.49754587 0.023966307 -0.6801964 -0.05065866 0.13085122 0.018124716 0.12296064 -0.21621656
-0.20039701 -0.11491438 -0.86600804 0.05715184 0.16760637 -0.6106039 -0.37131247 0.0132969245
-0.22974855 -0.3458719 -0.65364695 0.08896231 -0.034507506 -0.12242888 -0.83129805 0.16991764
0.04190828 -0.034614507 0.0862746 0.18115431 -0.104500964 -0.771591 -1.0763168 -0.025868986
0.15225908 -0.57532734 0.08157815 0.16083692 -0.25274765 -0.017708674 -0.21257426 0.14036252
-0.6152319 -0.3037364 0.03867885 -0.4580215 -0.577962 0.06985099 -0.35411403 -0.17472711
-0.038841702 -0.17274399 -0.03847839 0.0044180034 0.117017 -0.39029908 -0.14464533 -0.9917698
0.08580697 0.14662373 -0.08729718 -0.24915045 -0.047201265 -0.23001373 0.16653855 0.0005378225
-0.54618776 -0.4361269 0.14011948 -0.1952014 -0.1534551 0.07224477 -0.9335704 0.05650543
-0.60769457 -0.38129088 -0.048081093 -6.535044e-05 0.14949705 0.13008659 -0.3231318 0.008487368
-0.08745076 0.11588904 0.051127113 -0.08728184 -0.041566353 0.15672688 -0.59688336 0.15408055
-0.92045736 -0.12841839 -0.74455607 -0.39140987 -0.75792426 0.13332914 -0.39564604 0.09306424
00000000: 8679 64be a1b9 ebbc b58c fc3d a1fa 32bf
00000010: 1729 3bbf 3e82 00bf cdb9 2a3e 4170 cf3d
00000020: b282 eabd 5953 c23d b955 76bf 4313 a2be
00000030: c9e2 5abd 35ef 7cbe 3e3f 39bb 807b 35bd
00000040: 715e 3cbf cb5e 45be c18f 8bbe 5c18 013b
00000050: 3eda a83d 3b1c 253e d4e6 6c3e c103 f23d
00000060: 2dbd c4be 741c 84bf 8d64 66bf 6bf4 6f3c
00000070: b64a b2be 8710 39bf 0e94 313e 6524 d83d
00000080: f9c5 023e 535b 053d ca27 0c3e 506b a2bd
00000090: dacf db3d aaa9 d93d 0b8f f13d f45b 14be
000000a0: affe 8ebe 6d9e 6d3c e36a e7be a6c5 75be
000000b0: 932d 96be 11a2 5bbf 61bc 25bf 5e96 10be
000000c0: a19c b4be 20c9 3f3d 0262 87bd 27f9 163d
000000d0: f5fe c3bb eddc fdbe cd9c 1e3e f3fa 083e
000000e0: af27 333d f14c e9be ca71 0a3d f05e df3d
000000f0: d886 b9be 8b68 e5bd 253b d2bd 4952 173e
00000100: 2e09 dabd d471 90be 3236 e53d a807 b5be
00000110: 496b 3bbf 809f 94bd c6fd 213d d314 7abc
00000120: eaf9 a1bd 6a3f b73d 9f66 c1bc 94e2 b0be
00000130: c84b 2b3e 7099 6fbf bb01 513e 84d0 84bf
00000140: 7a18 243e dcd7 21bf c9fc b23d 8276 1dbf
00000150: ea9a 2f3e 08c1 d0be c7b0 ee3c dd4a 8fbd
00000160: 7b4e 32bf e5b9 20bf e52c 29bf 27d0 d53d
00000170: a982 f83b 6719 7fbe b139 1f3e fb82 2bbf
00000180: fc07 0a3e 7d05 c03c a067 31bc 2fa8 bc3c
00000190: 6e0d 49be d9b6 42bc 1584 fb3b 49b1 11bf
000001a0: 339d 93be 2380 bc3d ecbe 383e 6afa 49bf
000001b0: 7a83 dc3d da79 e03d 4b37 e73c e826 abbe
000001c0: f568 593d 43e6 e43d 2a42 89bd 0021 203e
000001d0: 2817 28be f566 243b c3a5 483e 3bd6 3ebf
000001e0: 91d0 4b3c a38f 5bbf f3bb 8ebc eb5e 6c3d
000001f0: 5be3 823c 39ef 20be cd85 2dbe e0e6 30bc
00000200: d258 49bf 0661 29be 5efe 16bc 8d05 033c
00000210: c608 063e 30aa 43bf 92c8 4cbe d615 49bf
00000220: 3ec1 12be 1d5e e1bd b94f ab3c 0291 593d
00000230: 6145 53bf 2349 0f3e 1fbf 1b3e 1a6e 463d
00000240: a448 3fbb 7184 cd3d f2ad 0fbf 4fe5 9fbe
00000250: 5bb0 8cbd fddc 373d 9ea0 5abe 36ca b5bd
00000260: 5a85 7b3d 1882 b4be b934 a3bd 822d 01bf
00000270: 8061 0d3d bc85 ca3d 9522 b33d 76d0 303e
00000280: 55be febe fd54 c43c 5a21 2ebf 747f 4fbd
00000290: ddfd 053e 497a 943c cad2 fb3d e067 5dbe
000002a0: e034 4dbe 3b58 ebbd b4b2 5dbf 0c18 6a3d
000002b0: 01a1 2b3e 8a50 1cbf ab1c bebe 58db 593c
000002c0: 3443 6bbe 1f16 b1be 6855 27bf df31 b63d
000002d0: be57 0dbd febb fabd f3cf 54bf e4fe 2d3e
000002e0: 04a8 2b3d f1c7 0dbd bdb0 b03d 8480 393e
000002f0: 9a04 d6bd fd86 45bf c0c4 89bf 32eb d3bc
00000300: cee9 1b3e a748 13bf 7212 a73d 6fb2 243e
00000310: 2468 81be c811 91bc 11ad 59be 31bb 0f3e
00000320: d67f 1dbf 5683 9bbe b76d 1e3d cb81 eabe
00000330: 51f5 13bf 090e 8f3d 6f4e b5be aaeb 32be
00000340: 7a18 1fbd cde3 30be 849b 1dbd e6c4 903b
00000350: 9ca6 ef3d 48d5 c7be e81d 14be a0e4 7dbf
00000360: 91bb af3d 8824 163e ddc8 b2bd 4c21 7fbe
00000370: 1d56 41bd b888 6bbe 1589 2a3e a8fc 0c3a
00000380: f6d2 0bbf 064c dfbe 7b7b 0f3e e0e2 47be
00000390: 5523 1dbe 11f5 933d 78fe 6ebf 3d72 673d
000003a0: df91 1bbf 8f38 c3be aef0 44bd c00c 89b8
000003b0: c115 193e 6b35 053e 8871 a5be 9a0e 0b3c
000003c0: 6219 b3bd 3c57 ed3d aa6a 513d d2c0 b2bd
000003d0: 7b41 2abd 037d 203e 59cd 18bf 4bc7 1d3e
000003e0: 18a3 6bbf 1c80 03be 3a9b 3ebf e066 c8be
000003f0: 5307 42bf 6f87 083e 1e92 cabe 7798 be3d

fc3.bias f4 [65]
-0.114873745 -0.16107245 -0.42879087 -0.010288097 0.1431862 0.03908222 0.14485607 -0.05422541
-0.08948585 0.00061596365 0.032382634 0.016006669 -0.046245057 -0.21226479 0.034991264 0.043763082
-0.17161694 -0.030662479 0.05035914 -0.039130304 -0.020067027 -0.19177428 -0.012863146 0.017997807
0.3307248 -0.17186682 0.24928476 0.22072266 0.08477169 0.09454184 -0.12559243 -0.111788146
0.05309532 -0.13070637 0.11818195 -0.16643095 0.085734054 -0.038935445 -0.022941735 0.34502545
-0.05665485 0.01725188 0.067007616 0.12035298 -0.07643901 0.013635063 0.11441456 0.094021186
0.18058756 0.020807648 0.16049871 -0.070707045 0.04522633 0.076003 -0.03753854 0.10734383
-0.18827726 -0.022050278 -0.24556093 -0.32482833 -0.28462213 0.10218939 0.049010735 0.15239885
-0.1282863
00000000: ed42 ebbd 2df0 24be 7a8a dbbe 688f 28bc
00000010: 679f 123e ae14 203d 2655 143e 771b 5ebd
00000020: 5b44 b7bd 9f78 213a a7a3 043d 6b20 833c
00000030: 756b 3dbd f15b 59be 0053 0f3d eb40 333d
00000040: 5abc 2fbe e12f fbbc 6345 4e3d 1947 20bd
00000050: 9b63 a4bc 7a60 44be f2bf 52bc 2370 933c
00000060: c354 a93e dbfd 2fbe 8144 7f3e 1f05 623e
00000070: c89c ad3d 279f c13d 4d9b 00be 2ff1 e4bd
00000080: 7a7a 593d e4d7 05be 6109 f23d e06c 2abe
00000090: 5695 af3d c67a 1fbd 4ef0 bbbc 2da7 b03e
000000a0: ea0e 68bd d153 8d3c 4a3b 893d a07b f63d
000000b0: 0e8c 9cbd 9965 5f3c 2e52 ea3d 2e8e c03d
000000c0: f2eb 383e cd74 aa3c c659 243e dbce 90bd
000000d0: 3f3f 393d 76a7 9b3d 03c2 19bd 15d7 db3d
000000e0: c1cb 40be c9a2 b4bc 5374 7bbe e64f a6be
000000f0: feb9 91be ac48 d13d 7bbf 483d 720e 1c3e
00000100: 7c5d 03be
